best_fraud_model.pt (torch, 485670 bytes, 43 tensors)

embeddings.user.weight f4 [64, 3]
00000000: 13ed 0f3f 89ca adbd e916 2cbd 245b af3e
00000010: 6a36 623e 0400 d6be c91f 9cbd f9d9 efbe
00000020: 4336 2ebe cdae f4be 6754 b7be f46e 3d3e
00000030: df40 02bf 60a4 da3d 66aa 563e 7fed 80bd
00000040: e6a0 a53e 7b44 343e c593 abbe 3aaf ac3e
00000050: a0f9 2dbe b737 d13d cae3 97be ed96 b4be
00000060: 6f02 02be c1a4 01bf afb8 0a3f 8e0a c83d
00000070: b4ba 5cbe 414b 62be ff82 06bf f372 3e3e
00000080: 97cc 64be 4b3e 98be 2920 41be e162 613c
00000090: 133f aa3d d7ab 073f 8a1b 0e3f d737 c03e
000000a0: 1f2e 853e 4473 61be c922 51be 49e4 21be
000000b0: 3828 f03e abc8 42be 8e38 f7be 6908 133f
000000c0: 7535 103e bb72 d43e 4df0 90be 7707 dfbe
000000d0: 232e 9c3c d61b 513e 695c 1cbe 8e8c 46be
000000e0: 2728 5ebe 3974 f23e 61f1 88be c9ac d9be
000000f0: 99c4 4abe 467f d93e 1b7b b73e 687e 85be
00000100: 7cf4 423e 6f85 993e ae3d e5be 3625 c93d
00000110: 11ff 993e e6c3 a13e e514 7dbe e040 f5be
00000120: 1ac1 29bd 35bf 373d 28d9 e9be 5482 88be
00000130: adc5 e6be d28c 3dbe f686 6f3e 942f ca3d
00000140: 89f4 be3e 493e 0dbf f1c2 e3bd 913d c9be
00000150: 9db7 2e3d 62a3 1c3e bb02 693e 6a47 143e
00000160: 1e93 40bd d57b 1a3d 7e16 353e 7239 803e
00000170: 41a9 9dbe f200 eebe 4990 a0be 7e5f a9be
00000180: a3df 39bd 40a7 4a3d 5509 f4bd 1147 0ebf
00000190: a63a d13e 268a e6be f398 653e 47f9 8a3e
000001a0: 4668 b73e c770 c3bd bff3 723d 5b7d 80be
000001b0: 7e2e 323e a254 0d3f 3af6 5a3e 3d13 ecbe
000001c0: a0a2 c9be 7933 e7bd d9f2 11bf 08b2 5abe
000001d0: 90c1 99be 34c8 f23e 0f32 a43e 58d4 c33e
000001e0: 0e99 853e b1cd cb3e 688c 823e 65c5 99be
000001f0: 4a92 203e c13d afbe f5ac 80be 979d a43e
00000200: 51b8 1abe 4212 0bbd c729 9e3e 832f bfbd
00000210: d63c b3be 2784 46be 1609 4bbe fb83 53be
00000220: 43f6 d33e ad34 783e d610 e6be 0a5a d23e
00000230: 9196 e73e 2bf1 a33d 9111 a83e d5aa 0bbf
00000240: 21ac 06bf 0325 33be bf3f 86be b9c1 00be
00000250: 1aec ac3e 9108 3ebe 0939 713e f67c 283e
00000260: a28b 13bf c98d f4be ff00 9fbc e443 743d
00000270: 0a9b 91be 080e cf3d 86f5 c43e 70ee 06bf
00000280: 1c0e 7b3e dada d8be 0643 433e 8529 ff3e
00000290: 8066 5fbe bb41 28be 8ab0 88be ccd7 0e3f
000002a0: 9b72 883e ef64 713e ed4e af3e 67b7 d73e
000002b0: bcd6 4ebe a41c 2a3c 713a c93e 4c45 fe3e
000002c0: e2f1 b33c f026 a83e 4d48 003e 4bcf 6cbe
000002d0: 8ca2 eabe a661 77bd 75d7 e13e ce3e aa3d
000002e0: 8afd 633e 3361 783e 6855 ec3e 464e c7be
000002f0: dcd9 0cbf da43 0fbf ed8b 33be e855 05bf
0.5622112 -0.08485896 -0.042014036 0.34249222 0.2209107 -0.41796887 -0.0762325 -0.46845987
-0.17012887 -0.47789612 -0.3580658 0.18499357 -0.50880235 0.10675883 0.2096344 -0.06295299
0.32349318 0.17604248 -0.33511177 0.33727437 -0.16989756 0.10215705 -0.29665977 -0.35271397
-0.12696241 -0.5064202 0.54188055 0.09767638 -0.21555597 -0.2209902 -0.52543634 0.18598537
-0.2234367 -0.29735026 -0.18859924 0.013756485 0.08312812 0.5299658 0.5551077 0.37542602
0.2601175 -0.22016627 -0.20423426 -0.1580974 0.46905684 -0.19021861 -0.48285335 0.5743471
0.14082892 0.41493782 -0.28308335 -0.43560383 0.019064968 0.20420775 -0.15269627 -0.19389555
-0.21695004 0.47354296 -0.26746657 -0.42514637 -0.19801559 0.42479914 0.3583611 -0.26073003
0.19038576 0.29984614 -0.4477362 0.098215505 0.30077413 0.3159477 -0.24715002 -0.47901058
-0.04144392 0.044860084 -0.4567349 -0.26661932 -0.4507269 -0.1851075 0.23391327 0.09872356
0.3729594 -0.55173165 -0.111211665 -0.39304784 0.042655576 0.152967 0.22754948 0.14480367
-0.047015302 0.03771575 0.17684361 0.25043827 -0.30793193 -0.46485096 -0.3136008 -0.33080667
-0.045379292 0.04947591 -0.119158424 -0.5557719 0.40865058 -0.45027274 0.22421627 0.2714331
0.35821742 -0.09542995 0.059314486 -0.2509564 0.17400548 0.55207264 0.2138299 -0.46108428
-0.39381886 -0.112891145 -0.5701118 -0.21356976 -0.3003049 0.47418368 0.32069442 0.38247943
0.26093334 0.39805368 0.25497746 -0.30033413 0.15680805 -0.34226802 -0.25131956 0.32151482
-0.15109374 -0.03395296 0.3089125 -0.09335234 -0.35007352 -0.1938635 -0.19827685 -0.20655815
0.4139882 0.24238844 -0.4493472 0.4108432 0.4523206 0.080049835 0.32825902 -0.54557544
-0.526064 -0.17494588 -0.2622051 -0.125739 0.3377388 -0.18557955 0.23556913 0.16453919
-0.5763494 -0.47764423 -0.019409655 0.059635058 -0.28438598 0.10110098 0.3846857 -0.52707577
0.24517101 -0.4235447 0.19068536 0.49836364 -0.21816444 -0.16431324 -0.2669719 0.5579803
0.26649937 0.2357366 0.34239903 0.42132112 -0.20199102 0.010382805 0.393024 0.49662244
0.021965925 0.32842207 0.1252758 -0.23125951 -0.45827138 -0.06039586 0.44109693 0.0831276
0.22264686 0.24255829 0.4615891 -0.38926905 -0.5501993 -0.5596291 -0.17533846 -0.5208421

embeddings.user.bias f4 [64]
00000000: a428 38be 8bfc 8abe de87 a83e d512 f33d
00000010: 0b02 59bd 88d4 dfbe c426 0cbf 5850 8d3e
00000020: 6e5c f63e e1b4 953e 11ef 30be 6a74 0d3f
00000030: b04b febd e5fa aabd b226 4dbe fccf eb3e
00000040: bf35 ff3d a3a3 4c3e 748a 37be 1c97 d7be
00000050: 32a6 823e 0817 8bbe 5a91 1f3e 731e 20bd
00000060: f1fb 193d 4882 f1bc 2e72 86be 7ebb a83e
00000070: becb 8e3e 95c6 86bb 2c65 ec3e 65e8 f5be
00000080: 3394 f73e 7d0a 7cbe 0124 d33d dab6 a3be
00000090: 5c72 e43e 9aeb dbbe 636e 7ebe be60 c8bd
000000a0: dc2d efbd 7177 09bf df32 02bd acb8 b43e
000000b0: 62d1 8b3e a88c 4e3e f1ed 38be 8894 d73e
000000c0: 225d b63e 067c 18be 916a 23be 7677 b2bc
000000d0: 295a 93be 5253 793d d4ed d83e 8ec2 25be
000000e0: 9153 a93e 2833 18bd e932 0fbf ddfd 813e
000000f0: 1887 4dbe ba12 84be b6ed ba3e e479 cf3c
-0.17984253 -0.271458 0.32916158 0.11868826 -0.052980464 -0.43716836 -0.5474665 0.2760036
0.48117393 0.29239562 -0.17278697 0.5525576 -0.1241678 -0.083486356 -0.20034292 0.46057117
0.12461423 0.19984297 -0.1792391 -0.42107475 0.25517422 -0.2716601 0.15582791 -0.03909154
0.037593786 -0.029481068 -0.26258987 0.32955545 0.27889818 -0.0041130283 0.46170938 -0.48028865
0.48355255 -0.24613376 0.103096016 -0.31975442 0.446185 -0.42953187 -0.24846797 -0.09784077
-0.11678669 -0.5369788 -0.031786796 0.35297143 0.27308184 0.20170844 -0.18059517 0.42105508
0.3561793 -0.14891061 -0.1595862 -0.021785479 -0.28779724 0.060870476 0.42368948 -0.16187498
0.3307157 -0.03715816 -0.5593706 0.25388995 -0.20071065 -0.25795537 0.36509484 0.025326677

embeddings.order.weight f4 [64, 2]
00000000: 3627 12be 7024 b4be e33f 2dbf 8039 a2be
00000010: c176 083f f987 163e e143 bfbe 20b6 d1be
00000020: 4fda 793e 137d fdbe 70cc 563d 9cd8 91be
00000030: 75f2 e53e 1d38 acbe f994 c33e 2c52 19be
00000040: 5819 813c 8079 da3e 9f1e 163f 8a31 b4be
00000050: 8235 02bf f7f1 db3d a103 c6be 570b e0be
00000060: 7eda 24bf e5bd 9b3e 489d 853e 30b7 7bbd
00000070: f288 d33d 02db 81be 6cab cf3b 8e39 f33e
00000080: a4f7 003f afea 1c3f 1db5 f1be d7ee efbb
00000090: 185d d7bd 59d8 a0bd 30b0 d2be ca4c 0e3f
000000a0: 6679 973d 8c65 ebbe 298b 20bf d015 143d
000000b0: 2c89 b93c dd48 2ebf ef87 313f 43a7 5abe
000000c0: aac8 293f 5c14 1b3f 3dc7 acbe e104 113f
000000d0: 53e3 40be 2be5 83bd b6f1 183f 363d 86bd
000000e0: 6198 953e b0bc 3c3d d48a dabe 12b6 123e
000000f0: 6ae4 4a3e 1018 89be 9962 903d d0d6 083f
00000100: 31bf 0d3f 1f23 88be 30ad 333f decc 423e
00000110: 9da2 e73e 66dd 57bd b366 b03e 227d 9bbe
00000120: cbee 4c3c af3e 25bf a811 21bf efb3 eebe
00000130: f242 4f3e ac3a 3f3e 4d10 2c3f 076b 19bf
00000140: 55d4 41be 0807 c83e 7a12 283f 6ccb 23bf
00000150: a72c 5abe d879 1a3f 9e5a 083f d92f 86be
00000160: d8ec 82be cc77 15bf 8c3a 39be 1c48 f63e
00000170: f200 9d3d f8a1 06bf 0e30 d3be ac53 9dbe
00000180: 8b96 1bbf 516d b9be abf7 2ebf 4565 bf3e
00000190: f9dc a5be 38e3 2fbf 5aef eebe 8122 23bf
000001a0: 4ced 1d3f 4091 243f aafc 8d3e 7fab 283f
000001b0: cdda 01be 7884 4c3e fd34 b5be cb39 8fbe
000001c0: 589a 013f 8bd9 b23e 91ea 8abe 81b3 25bf
000001d0: 28dd 1d3f e62e 1cbe 27b8 25bf e58d e43e
000001e0: 934d d3be 477f d9be 381f e73d 90c1 96bd
000001f0: 1f8b f8bd a682 f6be 23bc 1b3e 86f2 3b3e
-0.1427277 -0.3518405 -0.6767561 -0.31684494 0.53306204 0.14700307 -0.37356475 -0.40959263
0.24399684 -0.49509487 0.05244106 -0.28485572 0.44911543 -0.3363656 0.38199595 -0.14972752
0.015759155 0.42670822 0.58640474 -0.35194045 -0.50862896 0.107395105 -0.38674644 -0.43758652
-0.6439589 0.30418316 0.2609656 -0.061453998 0.103288546 -0.25362402 0.0063375738 0.47504848
0.5037787 0.612956 -0.4720849 -0.007322173 -0.10515803 -0.07853765 -0.41150045 0.5558592
0.07396202 -0.45975912 -0.6271234 0.036153615 0.022648416 -0.6807993 0.69348043 -0.21352868
0.66321814 0.6057794 -0.33745757 0.5664807 -0.18836717 -0.06440195 0.5974382 -0.06554644
0.29217818 0.046078384 -0.42684042 0.14327267 0.19813696 -0.2677617 0.07050056 0.5345278
0.5536986 -0.26589295 0.7018614 0.19023463 0.45241252 -0.052701376 0.34453353 -0.30368906
0.012508105 -0.6454877 -0.62917566 -0.46621653 0.20240381 0.18674725 0.67212373 -0.59928936
-0.18928654 0.39067864 0.65653193 -0.6398227 -0.21306096 0.6034217 0.5326327 -0.2620838
-0.25571322 -0.5838592 -0.1808874 0.4810189 0.07666196 -0.52590895 -0.412476 -0.307279
-0.60776585 -0.36216214 -0.6834666 0.3738195 -0.3239515 -0.68706083 -0.46666986 -0.63724524
0.6169021 0.64284134 0.2773183 0.6588668 -0.12681122 0.19972408 -0.3539199 -0.2797378
0.50626135 0.34931597 -0.27132085 -0.64727026 0.6166558 -0.15252265 -0.6473412 0.44639507
-0.41270122 -0.42479917 0.112852514 -0.07361138 -0.1213591 -0.48146552 0.15208487 0.18354234

embeddings.order.bias f4 [64]
00000000: 7bdd d83c ec30 ddbb e563 d13e 8918 f83e
00000010: fece 8b3e 41d7 743d 1ff9 1fbf f174 d63e
00000020: 37de 103f d595 a33e 7250 84be b9e9 f43e
00000030: 5a3a 903d d363 26bf 2d15 07be 8b36 c23e
00000040: 4c4a a83d 306e f4be b5aa 0dbf 6cc3 fcbd
00000050: 107b 2d3f 2c26 cf3e fcb1 d5bd 281b 0e3f
00000060: 03e6 81be 2a52 ce3e f6c8 9d3e 972c 8abe
00000070: 13a7 283f d9ab 303f 3530 e43e 6264 0d3f
00000080: 2870 0fbf e1c1 60be 50bf bbbd 4180 22bf
00000090: 5791 cbbe f1ae 773e 8607 0f3f c317 f9be
000000a0: cfb0 923e d8fb 913e 6cc0 d5bd 9a1c 10bf
000000b0: 659d 04bf e15a 123f 2e1a c03e 2bb0 46bd
000000c0: c204 dd3e f9e1 4f3e 311e 71bd c2ce 8f3e
000000d0: 0c72 053f 3089 bfbe eacc dd3e 25c3 ee3e
000000e0: 265b f13e 695d e5bd 00d0 e93e 6093 b73e
000000f0: ab9a b4be af5c cd3e 67b3 173f 3f02 2abf
0.026472798 -0.0067502167 0.40896526 0.4845622 0.2730636 0.059775595 -0.62489504 0.41886094
0.5658907 0.3195025 -0.25842625 0.47834566 0.0704238 -0.6499607 -0.13191672 0.37932238
0.08217296 -0.47740316 -0.55338603 -0.12341961 0.67765903 0.4045881 -0.104343385 0.5551019
-0.25370798 0.4029706 0.30817384 -0.26987144 0.65879935 0.6901222 0.4456803 0.55231297
-0.5603051 -0.21948959 -0.09167349 -0.6347695 -0.39759323 0.24187829 0.55870855 -0.4865094
0.2865052 0.28512454 -0.10437092 -0.5629364 -0.51802665 0.5716992 0.37519974 -0.04850785
0.43167692 0.20301045 -0.058866683 0.2808743 0.52127147 -0.37409353 0.433204 0.46633258
0.47139853 -0.11199457 0.45666504 0.35854626 -0.35274252 0.40109774 0.5925812 -0.6640968

embeddings.payment.weight f4 [64, 5]
00000000: 0642 62be 5d83 e23d 5885 ea3d 0942 ac3d
00000010: 1c68 a7be 9db9 b4bd d2d0 2f3e 88d2 82bd
00000020: ab31 e7bd 5e48 a9be 25fc 03be 2601 17be
00000030: fd3b e63d 6b50 4f3e c646 7ebe 879b b93e
00000040: c4c7 153e 0412 9cbe 1574 f13d e4df 7fbe
00000050: d2c4 55bd f59d cabe 5adc 7bbd 246e 3e3c
00000060: 9cd8 d5be 948d a2bd ecee babe dcde 9ebe
00000070: 0e47 d63e f04b 40bd 8d33 803e 3171 d8be
00000080: cbde aabe 3c8c c6bd 4304 d3be fade 113e
00000090: 6ee3 32be e366 a7be 1a96 4ebe 005c dd3e
000000a0: d4d3 ccbe e8ab 1bbe 0bd9 07be 2675 b1bb
000000b0: 6edd 87bd c3e1 ab3e d6d4 b1bd 02d9 74be
000000c0: 86d5 723e ec0c 80be fe58 323e ada3 cd3d
000000d0: b830 893d 912c a4be 22c8 a43e 0efe 733d
000000e0: 96cf b13e 4664 8d3e 63e0 b43e 6291 aa3e
000000f0: a45b de3e ba15 3dbe bbde 613d 4164 933e
00000100: 630f 233d 6896 b1be accf b63e 08cf 9fbe
00000110: fa43 d03d 4aa0 c53e 8fbe a43e c367 87be
00000120: f383 1d3e 324b 043d 3ddf debe 4a74 57be
00000130: da68 4f3e eb0a f7bd c046 f13d bc1e 6dbe
00000140: 3be2 8b3e 4f00 9d3e d98e ac3d f191 d2be
00000150: e951 85be f7d6 bdbd e73f c5be 957a a93d
00000160: 8f53 25be d936 e03e 8985 b4be 4a3b b53d
00000170: 4124 84be 9373 8b3e 2bbd 143b 15c0 573d
00000180: 4c84 8e3e fa25 e1be 1087 9fbe dfc8 d23d
00000190: 6548 a03c afa9 36be 9c1f 5fbe d255 523e
000001a0: f715 623d 6b6c a73d 1b13 bb3e a0fe 853e
000001b0: 4970 a83e d591 a53e 9de9 353e 97f6 c83d
000001c0: 192f dabe b266 db3e b51a d23e 412e b8bd
000001d0: 135f 54bd 6fd9 4bbe 9fdf 96be d8f4 8b3e
000001e0: 3b69 7bbe b60d ccbd 7676 523e ac97 5cbe
000001f0: cc3e b63d 0ac8 b4be 73df b93e 885c c33d
00000200: 063b 043d 8963 6ebe 66df d2be cab1 e1bd
00000210: d154 40bd a0eb a2be 3c93 af3e 24e0 763e
00000220: 1d29 c2be 3348 08be 6cfd cc3e d92c 8cbe
00000230: ff47 dabd 033f a7bd c2b0 9abe d28b a6be
00000240: 676b 163d 7e78 ea3a 5d4c f3bd 1a72 98be
00000250: bffd 8bbe aebb c1be 0f5e e3bd 70f5 5b3d
00000260: 0e57 8fbd 39f8 2f3d cb4a 8bbe f3bb 9dbe
00000270: a4c5 5ebd 741f 51be 59de 8f3e 1abe 613e
00000280: 262d 0abd 3dc7 97be 549e d3be 4201 7d3e
00000290: 3843 dcbe e2af 4fbe 2bbd d43e 39f4 363e
000002a0: 8fbf 303e 5d25 04be 0fcc 26be c896 8ebe
000002b0: a34e c13e 9629 653d 1223 153e 211a b6be
000002c0: 9bb5 21be a5a6 dabc 98b6 24bd 5b1f 4abd
000002d0: 3600 7f3e 0f72 85be 787b 723d a8b3 8dbe
000002e0: 8b23 3bbe 87af b43e fa62 c23e 2a23 a33e
000002f0: 13c8 90be 2247 e6be 7bc1 233e 049f dc3e
00000300: 7f07 443d 043a 813e 5ef8 a73e 7a3b 2b3d
00000310: 95fb bebe 9780 babe 087c 4f3e 2c9c b5be
00000320: e6d7 653e ba0a 9d3e 0bec 923e 6e4f ea3c
00000330: 42a2 dbbe b492 bcbe 5e51 113d dec0 afbc
00000340: 9dee 30be 25c2 ab3e 02a0 d53e d61a c7be
00000350: 1e72 88be 0397 d6be b354 93be 8ad9 1e3d
00000360: c3f0 803e 3cf3 24be 1527 72be d5e4 3fbe
00000370: f336 e0be acc5 31be a911 a13e 2eb5 b83e
00000380: 77fc 96be 6e19 8abe f6d7 3b3e 1334 dabd
00000390: 9a97 6bbd 4e85 b73e c6af 64be 4462 13be
000003a0: 659a 99be 98d3 743e 693a a8be 13e6 5b3e
000003b0: d71b 17be 734e 8abe 1d44 843e 9e0e a8be
000003c0: 3c73 b33e dfa0 3cbe 1225 87be fb06 50be
000003d0: badc bbbe 2ac2 7a3d cb14 04be b5c3 c8bd
000003e0: 1685 afbe a2fd d03e 85c8 9e3e 4bc2 593e
000003f0: c89f 48be 34ff be3d 0383 9e3e 0d2a 933e
-0.22095498 0.11060212 0.114512146 0.08411033 -0.32696617 -0.088244654 0.17169502 -0.06387812
-0.1128877 -0.33063024 -0.12889154 -0.14746532 0.112419106 0.20245521 -0.24831685 0.3625147
0.14626986 -0.30482495 0.11789719 -0.24987751 -0.052189656 -0.39573637 -0.06148944 0.011622939
-0.41766822 -0.0793716 -0.36510408 -0.31029403 0.41851085 -0.04694742 0.2503933 -0.42273858
-0.33373103 -0.09694716 -0.4121419 0.14245215 -0.1746957 -0.32695684 -0.20174447 0.43234253
-0.40005362 -0.15202296 -0.13266389 -0.0054155765 -0.06634031 0.3357068 -0.08683173 -0.23910907
0.23714265 -0.2500986 0.1741676 0.10040984 0.066987455 -0.3206525 0.3218394 0.059568457
0.34728688 0.27615565 0.35327443 0.33314043 0.4342929 -0.1846532 0.055144053 0.28787425
0.039809596 -0.34685063 0.35705316 -0.3121264 0.101692155 0.38598853 0.32176635 -0.2644635
0.15382366 0.032298274 -0.43529692 -0.21040455 0.20254841 -0.12062629 0.117810726 -0.23156255
0.27321038 0.30664298 0.084256835 -0.4112697 -0.26039055 -0.09269517 -0.38525316 0.08275334
-0.16145156 0.43791845 -0.3525813 0.08849199 -0.2580891 0.27236614 0.002269576 0.052673418
0.2783531 -0.43974286 -0.31157732 0.10292219 0.01956577 -0.17838167 -0.21789402 0.2054055
0.05519673 0.08174976 0.36538014 0.26170826 0.32898167 0.32337824 0.17764898 0.09812658
-0.42614058 0.42851788 0.41036 -0.08993197 -0.051848482 -0.19907163 -0.29467484 0.27335238
-0.24551861 -0.09963553 0.20553002 -0.21542233 0.08898696 -0.35308868 0.3630329 0.09539133
0.03228285 -0.23280157 -0.41186064 -0.11020239 -0.046955887 -0.31820393 0.34292018 0.2410894
-0.37921992 -0.13308792 0.40037096 -0.27377966 -0.106582634 -0.081663154 -0.3021298 -0.3252855
0.03672352 0.0017888693 -0.118797995 -0.29774553 -0.2734203 -0.378385 -0.11101925 0.053700864
-0.06999026 0.042961333 -0.272055 -0.30807456 -0.054387704 -0.20422155 0.28099325 0.22045174
-0.033734463 -0.29644194 -0.41331732 0.24707511 -0.43020034 -0.20281938 0.41550574 0.17866601
0.17260574 -0.12904878 -0.1628878 -0.27849412 0.37755308 0.055947863 0.1456416 -0.3556681
-0.15791933 -0.02669079 -0.040213197 -0.04934631 0.24902424 -0.26063582 0.05919978 -0.2767613
-0.18275277 0.35290167 0.37966138 0.31862766 -0.28277645 -0.44976145 0.15991776 0.4309007
0.04785871 0.25239575 0.32806677 0.04180477 -0.37301317 -0.3642623 0.20262158 -0.35470712
0.2244564 0.30672246 0.28695711 0.028602328 -0.4289723 -0.36830676 0.03547799 -0.02145427
-0.17278524 0.33546558 0.4172364 -0.38887662 -0.26649565 -0.41912088 -0.28775558 0.03878168
0.25183687 -0.16108412 -0.23647721 -0.18739636 -0.43791923 -0.17360562 0.31458786 0.3607573
-0.2948949 -0.26972526 0.18344101 -0.106544636 -0.057517625 0.3584389 -0.22332677 -0.14392954
-0.30000606 0.23908842 -0.32857063 0.21474485 -0.14756714 -0.27012977 0.25833216 -0.32823652
0.35048854 -0.18420742 -0.2639547 -0.20315163 -0.36691839 0.061220326 -0.12898557 -0.09802953
-0.34281224 0.40818506 0.3101236 0.21265523 -0.19592202 0.0932602 0.3095933 0.2874302

embeddings.payment.bias f4 [64]
00000000: 534d 653e 0eb4 8c3d ebc6 32be 0aa5 633e
00000010: 86b9 99be b433 923e 8897 40be 5fef c53e
00000020: 4674 743e 9acb a13e 25d4 6f3e 3bf9 843e
00000030: 35d9 813e 16a8 8abe d5de 313e 4da5 c83e
00000040: aaa8 59bc 32e7 31be 1c3f 86be 6421 653e
00000050: 05e3 e2be 7561 68bd 0083 a13e d933 a13e
00000060: f21a 4fbe 98ff 42bd e6af aabe f382 d33e
00000070: 90bd 263e 55de 9c3e 0cbb 333e 3e79 953e
00000080: 90b4 13be 93c7 abbd dd6a 92be 57fb 87bd
00000090: 881c a8bd 7fc3 a93d bbd8 e1bd 12aa e4bd
000000a0: 172b b13e cb41 84bd 819b cbbe 59b4 693e
000000b0: 571c 243e 6b2e d2be 97c3 c83e f80e 9f3c
000000c0: ce46 553e b6ef 653e be9e 8f3e a60f bf3e
000000d0: 20f6 813e 64c3 a03c 2a70 72be 3976 d4be
000000e0: 62ff a53d 9345 99be 56af 983d 9996 b63e
000000f0: 5176 633e 17e3 df3e e9f7 99be 1964 763e
0.22392778 0.0687028 -0.17458694 0.22230926 -0.30024356 0.2855507 -0.18807805 0.38659188
0.2387248 0.31600648 0.2342077 0.25971398 0.25361028 -0.27081364 0.1737016 0.39188614
-0.013284842 -0.1737335 -0.26220024 0.22376019 -0.44313827 -0.056733567 0.31545258 0.3148487
-0.20225123 -0.047607034 -0.33337325 0.41310844 0.1628325 0.30638376 0.17551821 0.29194063
-0.14424348 -0.08387675 -0.28597155 -0.06639736 -0.08208567 0.08289241 -0.11027666 -0.11165251
0.34603187 -0.064578615 -0.39767078 0.22822703 0.16026436 -0.4105104 0.39211723 0.019416317
0.20827791 0.22454724 0.28050798 0.37316626 0.2538309 0.01962442 -0.236756 -0.41496447
0.08105351 -0.29935893 0.07455318 0.35661772 0.22213103 0.43727943 -0.30071953 0.24061622

conv1.kqv_lin.lins.user.weight f4 [192, 64]
00000000: 029e ffbc 31fa 973d 4b75 9f3d bea3 d6bb
00000010: c591 993d dd9d 98bd 04b5 343d 7c87 a5bc
00000020: c28a c23c b34c b23c 95a8 efbd 8db1 e23d
00000030: 55b7 a93d 9c05 d33d e01f e3bd 5ceb f83c
00000040: c26a e8bd b916 73bd a14a 98bd d564 71bd
00000050: 0231 abbd cec5 67bd 494b ec3d 6664 e43d
00000060: e2d3 d1bd cef2 52bd 8ae6 e23c 2961 873c
00000070: 10fb b33d 156c e1bd e2c9 bdbd db79 10bc
00000080: 73d2 cc3d b7a1 cb3d 3438 9abd 67e5 fb3c
00000090: 42b7 033c 7feb f3bd 0800 78bc aad8 fe3d
000000a0: 0f40 e23c 5152 aabc e2bc d93d fef3 a3bd
000000b0: d59f 6bbc 1810 82bc 9458 bb3c 4a71 d3bd
000000c0: 2ebf 2d3d 34cb 7bbc c24e 71bc 49d3 9abd
000000d0: 9835 7b3c bb79 aabd 73a9 d83d 9893 b73d
000000e0: 7988 debd cc43 5d3d de50 923d 047b bebd
000000f0: 51f7 a5bd c84a f03d 966c b63d 24f8 c83d
00000100: d9ad 01bd 4064 e03d e6d5 00bd a5d0 a73c
00000110: 421e e3bd ba63 f83d e929 99bd 6438 663d
00000120: c33d b83d a55a 8e3d c1c3 743d 9476 163d
00000130: e06b f1bc 3f1e 83bd e16f bc3d efa4 07bd
00000140: f6e9 a4bd 4d03 f3bc 0d6f 9e3d aa41 5bbc
00000150: 96a5 88bd b99b 483d 0c26 bebd 85f1 b3bd
00000160: 2bb4 a5bd 1e83 8abd f4fe 44bc 6c91 c6bd
00000170: 870c 883d a4ca 443d 0bad bfbd 3ae0 963c
00000180: 8a14 0a3d a393 adbd ffa6 433d c33c 913b
00000190: 7a92 a33d 0dc3 a2bd 8803 793c 2908 c23d
000001a0: e5af 2d3d 5906 8a3d 301c b63d 8618 c7bd
000001b0: a465 dcbd 8ca3 b73d e59e 653d 50dc 4e3d
000001c0: 2a4f f2bd a578 8d3d fb16 b03c d90d f8bd
000001d0: 7223 ea3c ced0 d23c de84 66bd 4764 773c
000001e0: 952a f5bd e122 d0bd 165c b2bd 256e a83d
000001f0: de96 e83d 842d d23d 57d6 e33d b600 27bd
00000200: 2279 ccbd 48ad c93d f896 22bd 9698 64bd
00000210: a738 5d3d 8f5c cabc 6cef f0bc 366b 053d
00000220: dfbb 18bd 136b 263d a8a5 b63c c66c c23d
00000230: 3b23 c53d a468 433c ffc0 27bd 6d14 e93d
00000240: 942d c63d bdc9 3c3c c0a2 c63d f14c 54bb
00000250: 5975 7fbd 1fe5 85bd edeb 63bd 5958 d53d
00000260: af67 aa3c 7a76 d5bd 092e 0dbd ceb1 ddbd
00000270: fb1d c2bc 050d 21bd 389d 8bbd 1c37 8d3d
00000280: 8b08 c23d 7630 cbbd b5e1 b6bc d906 a43d
00000290: 65fa 3f3d d063 bcbc ecdb ec3c a16f 9ebd
000002a0: ee13 433b 98ee 7dbd afa7 c3bd c712 a23d
000002b0: 92a8 7ebc 57e6 dbbc 9202 f4bd 35e7 d03d
000002c0: d43f 8c3d 833a 163a aa35 4c3d ea69 b93b
000002d0: 83b9 aa3d 186c d53d 6005 28bd e7d7 983d
000002e0: f2c4 e4bd f7ab 1c3d 3110 8f3d 191c 363d
000002f0: 759f f33c 8071 973d 7106 113d 7f01 b9bc
00000300: 2f5e 61bd da27 803d 57c7 e43c a47f a6bb
00000310: 2a26 35bd 0bb6 94bd 3d5d 073d 3b52 e43d
00000320: fcef e33d d272 c8bd 9b21 4f3c 7b2b 46bc
00000330: ac3c 84bd e795 2f3d 7dbe 183d 3070 d53c
00000340: 4997 813c 7463 21bd 2456 83bd 3344 bcbd
00000350: b363 bdbd 1e75 0f3d 0a3c 5bbd 370c ec3d
00000360: 95b1 abbd 920d e03d b64d 8abd 69f9 83bc
00000370: db36 b5bd 2146 b9bd 699d d6bd f395 a93d
00000380: a064 0cbd 74b2 abbd b1f8 6fbd 3e29 32bd
00000390: e1a4 cfbd 7222 64bd 5b7a c0bd bdab c5bd
000003a0: 143a 9f3d 6081 763c 6766 d23d 8c9b 323d
000003b0: 9a98 003e 68cd 053c 579d 3cbd 67a9 8f3b
000003c0: a9e1 dabc fd31 aa3b b252 b6bc 8730 8c3d
000003d0: 1a55 cfbd 0023 e93d adc8 9ebc be8a cd3d
000003e0: d6bf 6a3d 32f3 3abd b443 fabd dab2 b4bd
000003f0: 04a1 b7bd e2f9 5dbd 9063 8bbd 18c9 dcbd
-0.031203274 0.07420767 0.07786044 -0.0065502813 0.074985065 -0.07451985 0.044117942 -0.020206206
0.023747806 0.021765089 -0.11702076 0.110690214 0.08286921 0.10303804 -0.11090064 0.030385666
-0.113484874 -0.059347842 -0.07436109 -0.05893405 -0.08358957 -0.056585126 0.11537797 0.11151962
-0.102454916 -0.051501088 0.02769782 0.016525822 0.08788121 -0.11006943 -0.09267022 -0.008818115
0.100010775 0.09942954 -0.07530251 0.030749036 0.008039298 -0.11910152 -0.015136726 0.12443669
0.027618436 -0.020791205 0.1063173 -0.08005522 -0.014381369 -0.015876815 0.022869386 -0.103243425
0.04241865 -0.015368272 -0.01472825 -0.07559831 0.015332602 -0.083239995 0.10579195 0.08963698
-0.10865874 0.054019734 0.071443304 -0.09300807 -0.081038125 0.117330134 0.0890743 0.09812954
-0.031659935 0.10956621 -0.03145399 0.020485232 -0.110897556 0.12128396 -0.07478697 0.056206122
0.08996155 0.06950883 0.059756998 0.03673418 -0.029470384 -0.06402253 0.09201027 -0.033116277
-0.08052437 -0.02966466 0.07736025 -0.013382355 -0.06672208 0.048976634 -0.092846006 -0.087863006
-0.08091005 -0.0676329 -0.012023676 -0.09695706 0.066430144 0.048044816 -0.09359177 0.018417466
0.033710994 -0.08475425 0.04776668 0.004432292 0.079869226 -0.07947359 0.015198596 0.09474213
0.042404074 0.06739492 0.08892095 -0.09721474 -0.10761574 0.08966741 0.056059737 0.050503075
-0.118315056 0.06907777 0.021495333 -0.12112016 0.028581355 0.025734331 -0.056279056 0.015099592
-0.119710125 -0.101629026 -0.0870897 0.082241334 0.11356901 0.10262588 0.111248665 -0.040772162
-0.09984042 0.09847504 -0.039694756 -0.05580958 0.054009106 -0.024702339 -0.02941104 0.032572947
-0.037288543 0.040629458 0.022295788 0.09493403 0.0962586 0.011926804 -0.04095554 0.11380849
0.09676662 0.0115227075 0.09699011 -0.0032394493 -0.06236777 -0.06537842 -0.05564492 0.104172416
0.020801393 -0.10422988 -0.03446773 -0.10824929 -0.023695936 -0.039319057 -0.068170965 0.06895277
0.09474286 -0.099213526 -0.022324422 0.080091186 0.046869654 -0.022996813 0.02891346 -0.07736135
0.0029766518 -0.06199512 -0.095534675 0.07913738 -0.01554312 -0.026843233 -0.11914553 0.10200349
0.06848112 0.0005730765 0.049855866 0.005658378 0.08336165 0.10421008 -0.04102075 0.07463055
-0.11170377 0.038249936 0.0698551 0.04446039 0.029739121 0.07394695 0.035406534 -0.022583721
-0.05502146 0.06257601 0.027927084 -0.005081134 -0.04422585 -0.072612844 0.033047903 0.11148497
0.11129758 -0.09787525 0.0126422895 -0.0120953275 -0.06456885 0.042867567 0.03729104 0.026054472
0.015819209 -0.039401487 -0.064129144 -0.091926955 -0.09247532 0.0350238 -0.053524055 0.11525767
-0.083834805 0.10940088 -0.067531034 -0.016110139 -0.088483535 -0.09046579 -0.10479242 0.08280554
-0.03427565 -0.083836466 -0.05858678 -0.043496363 -0.1013887 -0.055696912 -0.093983375 -0.09651897
0.077747494 0.015045494 0.10273438 0.043605372 0.12558213 0.008166648 -0.04604849 0.004384208
-0.026718931 0.0051939473 -0.02225623 0.06845193 -0.10123654 0.11383629 -0.019382799 0.100362286
0.057311855 -0.045642085 -0.122199446 -0.08823176 -0.08966258 -0.054193385 -0.068060994 -0.10780543

conv1.kqv_lin.lins.user.bias f4 [192]
00000000: 36f8 b8bd 9abe 50bd 2aab 8f3d 6d9e 82bd
00000010: 31dd 9c3c 5617 853d 975e bebd 8c41 e83d
00000020: c9d6 513d a455 9a3c 47f6 a2bc 2fca 46bd
00000030: b30f d13d 116c d3bd b567 203c cc4e 903d
00000040: 851e 6d3d c48c 33bd 9dbd 43bd 7e97 3cbd
00000050: fcd0 963d fff9 cbbc 752c 55bd b816 bfbd
00000060: e81f acba 3067 aabd 94f9 58bd 0086 413d
00000070: 75dd f13d e2ed dd3c 6c69 b43d 3456 823d
00000080: 8990 de3b d90c 533d e519 e43d e2d6 c83d
00000090: bba8 cebd a34a e13b c991 aebc c109 723d
000000a0: 5e50 bc3b 1629 fa3d bc0e 4cbc 7373 27bd
000000b0: 7867 cc3d 0cf4 fb3c 5562 a23b 9b4e c4bd
000000c0: c92f 563d 07bf a03d 4fe8 94bd d073 c53d
000000d0: 580b cf3d 00e0 5b3c e28d 9c3d 5879 3e3d
000000e0: d940 5fbd e06e b5bd 962b 1b3d 0230 29bd
000000f0: 75ed a03d ab3b 89bd c77d 8b3d bc9e c6bd
00000100: 2128 df3d 0d39 d43d 1b56 d13d 327f e23d
00000110: aacb 8b3d 3960 64bd 9bad 85bb 5c11 90bd
00000120: e68f 8d3d 42ee b43d ea32 203d 0e68 af3d
00000130: 0bb6 7d3d 038f 313d 2ef2 de3c 3e2f dabb
00000140: 638b 5d3d 7abf a4bd 34e0 463d b0bd 113d
00000150: c0b6 84bc 1575 65bd 7226 e73d 385e be3c
00000160: 30cf c63b 0dd4 e5bc 6191 563d d4c4 b43d
00000170: f1ca b13d 9602 75bd 964c 95bd 66d3 d43d
00000180: cd2d 2dbd aa04 c73d afd8 cd3d 3d95 7abd
00000190: e4e0 9abc e2fb aa3c 4d41 7abc 14fd d2bd
000001a0: bbcb e13d d506 8c3d e690 5d3d bac1 c03a
000001b0: 2685 cc3c e064 e03d 1140 46bc ee92 0cbc
000001c0: 566a 98bb f7fc ea3d bafd d2bd 3aa4 b93b
000001d0: 0498 02bd 0242 123c ea8d 95bc fc96 4f3d
000001e0: a4cd 503b 091b 91bd 0a81 d2bd eebf f0bb
000001f0: 4505 53bc bf00 b5bc 593d 3bbd c0c4 9e3d
00000200: 453d 11bc 4b66 7cbd 8d7c 9c3d 58bd a93d
00000210: 131f b6bc 24de d83d b8a9 bbbd 9112 e43d
00000220: 8280 d13d 03cd 77bd 1c59 88bd 5cec 263d
00000230: 745c 8e3d 813c d13d 4259 c4bd 24a1 6e3d
00000240: 64aa 8c3d 1385 9c3d 8c92 273d 4e66 ecbd
00000250: 6a3d d7bc 8226 f0bd 31e4 853c 50f9 1b3d
00000260: 1ebd 303d bde1 993d e47e d33d da09 643d
00000270: b719 c6bd 9303 323d e20a e5bd c358 8ebd
00000280: aa58 773d 7ed1 f43d c555 efbd 99f8 e7bd
00000290: 2939 efbd 8e12 283d b3ef 033e 3f8a 56bd
000002a0: 442f 213d 8ad7 dfbc 09c9 bdbd 5376 6e3d
000002b0: 9094 7e3d 0176 e4bc 379b a93d 4d3e 7e3d
000002c0: 5ef0 c73d 931c b33d f600 6e3d 5762 e4bd
000002d0: 79a1 c2bd f461 f23d e59d 2e3d 0b90 e7bd
000002e0: a6b6 73bd d6e9 bc3c 4a42 acbd c4a4 263d
000002f0: 81cc fd3b 6b9e 0fbc e083 123d 3aae bc3d
-0.090317175 -0.05096302 0.07015069 -0.063778736 0.019148441 0.064985916 -0.09295385 0.11340627
0.051230226 0.018839665 -0.019892825 -0.04853266 0.102080725 -0.103233464 0.009790351 0.07046279
0.057890434 -0.043835416 -0.04778825 -0.04604291 0.07364079 -0.02489948 -0.05204435 -0.09330505
-0.0013132067 -0.08320463 -0.05297239 0.047246933 0.11809818 0.02709097 0.0880917 0.06364098
0.0067921323 0.051525924 0.111377515 0.09806611 -0.100907765 0.0068753525 -0.02130975 0.059091333
0.005746885 0.12214868 -0.012454685 -0.040881585 0.099806726 0.030756019 0.0049555697 -0.09585305
0.052291665 0.078489356 -0.07270872 0.0964123 0.101095855 0.013420105 0.076442495 0.04650244
-0.054505203 -0.08859038 0.037883364 -0.04130555 0.07857791 -0.06700834 0.068110995 -0.09698245
0.10896326 0.10362444 0.102215014 0.11059417 0.06825955 -0.055755828 -0.0040795333 -0.07034561
0.06912212 0.088345066 0.039111055 0.08564769 0.061941188 0.043349277 0.02721509 -0.0066584637
0.054088008 -0.08044334 0.04855366 0.03558129 -0.016200423 -0.05601986 0.1128663 0.023238286
0.006067179 -0.028055215 0.052384738 0.088266045 0.08681286 -0.05981692 -0.07289998 0.103918836
-0.042280007 0.097176865 0.10051095 -0.06117748 -0.018906064 0.02087206 -0.015274358 -0.10302177
0.11025187 0.068372406 0.054093264 0.0014706173 0.024965834 0.109567404 -0.012100236 -0.008579953
-0.004651348 0.114740305 -0.10302301 0.0056653293 -0.031883255 0.00892687 -0.018256146 0.0506811
0.0031860853 -0.07085235 -0.102785185 -0.0073470986 -0.012879674 -0.022095082 -0.045712803 0.07752371
-0.008864705 -0.06162099 0.07640944 0.082880676 -0.022231614 0.10589245 -0.09163231 0.11136354
0.10229589 -0.06049825 -0.06657621 0.040752754 0.06951228 0.10216618 -0.09587337 0.058259144
0.06868437 0.076425694 0.040911242 -0.115429506 -0.026274402 -0.11726095 0.016344162 0.03807956
0.043149106 0.07513759 0.10326937 0.055673458 -0.096728735 0.04346044 -0.11183716 -0.06950524
0.06038729 0.1195402 -0.11686281 -0.11326713 -0.11680824 0.04103332 0.12884407 -0.052377935
0.039351717 -0.027324457 -0.0926686 0.05821831 0.0621534 -0.0278883 0.08281558 0.062071133
0.09762643 0.087456845 0.058106385 -0.11151569 -0.09503455 0.11835089 0.04263105 -0.11306771
-0.05950036 0.02306072 -0.08411081 0.040684476 0.007745326 -0.008765797 0.035770297 0.092129186

conv1.kqv_lin.lins.order.weight f4 [192, 64]
00000000: 1b4d e6bd 0a36 db3d e676 eebd 920c bc3d
00000010: 92f9 203d f5a5 593d 08a1 a33d 5e75 ec3d
00000020: a269 fabd 6fde 953d a5dd 2dbd a4a4 3dbc
00000030: 7bd4 88bd 5f6f a5bd 0dd7 c93c ef43 7f3d
00000040: bc1a f63d 5a88 ff3d 34b5 f2bc 4ac9 a7bd
00000050: fb96 b73d 32f0 013e 4410 f23d 280f 7d3d
00000060: 6291 2bbd e6d8 57bd e78a 6a3a 97d2 be3c
00000070: 8be9 b8bd 6af6 153d e32a 33bd b71f b43d
00000080: 4ad3 a9bd c6ad 973d c255 c7bc b378 f1bd
00000090: e632 2f3c 1d79 ea3c aa74 823d 6b97 adba
000000a0: 8410 5dbb ff98 b73d 33f8 1cbd 6f46 20bd
000000b0: 0d51 d23c e582 c93d 24ac ecbd 7e0c a93d
000000c0: a31d 59bd e53d 683d eaec c03c f90a cdbd
000000d0: 625f be3d 86fb c0bc 1d90 9b3d f375 ac3d
000000e0: ad6c 913d c25d bebd 6573 32bc 17ad a73d
000000f0: b064 d73d 72c7 88bd 3997 d1bd 509f 60bd
00000100: 37c7 79bd a921 7c3d 252f bfbd 069b f43d
00000110: c9bf b0bd 7836 ab3d dda5 943c dd8f d4bd
00000120: cd39 dcbd f66e 68bc d45e d33c 740e 26bb
00000130: 5692 543d 2cba f4bd a4d2 a7bb 0e0b 06bd
00000140: 9ebd fcbd 729a 543c 28e2 1e3c c0f1 f03d
00000150: 4b49 e53d f3ed 153d af10 bfbd 6fb6 94bd
00000160: e38e db3d de92 5a3c c3cd 31bd f929 e43c
00000170: 1098 80bd 0ade 85bd 374e 633d f452 64bd
00000180: 988b bf3d c9da 72bb 197b c2bd 165e 36bc
00000190: b5bb e83d 18c4 babd 4642 edbd 4775 b93c
000001a0: b519 ae3d 6d26 393c a40e 7d3d ea32 0d3d
000001b0: 9ab1 7f3d e316 6f3d a0ff e4bd 79ac 3d3d
000001c0: a7c3 bf3d 8572 66bc 8500 32bd aa32 a1bd
000001d0: 6428 c4bd a721 16bd 47cc 6dbd 6292 a5bc
000001e0: daa8 ddbd 6af8 19bd 1f4d da3d 6896 ab3d
000001f0: 6eed b83c e204 84bd b930 8fbc e191 bebd
00000200: ee3a 1b3d f8ed 9e3d 2974 a4bd 68f4 b1bd
00000210: c573 063d a3de 993d 60e8 ac3d b4e8 3fbd
00000220: 97d1 3f3c e692 8c3d 34ab 1ebd 3d28 403d
00000230: b298 743d 65f3 fd3c 3543 653c c337 393d
00000240: f15c 543c 3894 d2bd 7b9b 8a3d 0f03 833d
00000250: c28f e0bd 77e1 213d a202 78bc 9939 723d
00000260: 5331 0c3d 6312 bcbc d12d f43d 106f d93d
00000270: e6ce d23d 4878 033d 557f a7bd 864b d43d
00000280: be11 90bd 3464 34bd 5bc3 afbd 4f09 2bbd
00000290: d03a 5e3c a83e a93d e84d 66bd 7428 343d
000002a0: 3948 e7bd 5457 f73d 07f4 f9bd c44b 923d
000002b0: 044b f3bc 6801 c1bd 6532 a0bd 7aba f8bd
000002c0: 05d1 ab3c ae58 f5bd 8396 b63d f1b9 513d
000002d0: e3f9 633d 236f cdbc cd28 753d 6e98 3e3c
000002e0: 2037 ef3c e9e0 f23d 6b06 8d3d f1ca eb3d
000002f0: 72bd bf3c 8782 cd3d 00fb 9f3d 38f3 8bbd
00000300: 2239 d0bd dd43 9d3d 6a0c 9bbd d74b 17bb
00000310: a10f 9b3c 45db 5c3d e7b1 4e3d da2f c6bd
00000320: 3bf8 c23c c5a4 973d 1c46 bb3d fad5 f0bd
00000330: b57c 213d 2d81 85bc 5120 953b c547 80bb
00000340: 0bd6 57bd d07c 8ebd 9108 6dbd ea6e cf3d
00000350: 8862 b43d cd15 90bc ed24 8bbd 2b73 a03d
00000360: 6d70 ebbd 0cbf 153d cfce d4bd 49ee 223c
00000370: 18eb 2b3d b76c 553c 2c84 73bc d015 d13d
00000380: e498 c5bd 9856 23b9 d654 84bd aa1e 833c
00000390: 0a78 abbc 84ba 13bd d5ed 9a3d 483f d83d
000003a0: a98f c6bb 6840 5c3d ec64 973d f59c e4bc
000003b0: 554d afbd 758f c5bb cf04 8cbd 6c84 a8bd
000003c0: edfe 92bd fc5b bebd 20f7 75bc 2e46 97bd
000003d0: cedd a0bc 959b 89bd f885 853d 077b 1b3d
000003e0: 0cfa 6fbd 07e0 b7bd 75f2 f23d c235 943d
000003f0: 9447 06bd 8fe5 fdbd e978 f9bd 8970 ee3d
-0.112451755 0.107036665 -0.11643772 0.09182085 0.03930051 0.053136785 0.07989699 0.115458235
-0.12227179 0.073178165 -0.042447705 -0.011574898 -0.066811524 -0.08077883 0.024638677 0.062320646
0.12016818 0.12477179 -0.02962742 -0.0819269 0.08964344 0.12689283 0.11819509 0.061782032
-0.041886695 -0.052697085 0.00089470897 0.023293776 -0.0902892 0.036611952 -0.04374207 0.087951116
-0.08292253 0.074061915 -0.024332885 -0.117906 0.0106932875 0.028622204 0.06369908 -0.0013243979
-0.0033731768 0.089647286 -0.03832264 -0.03912967 0.025673414 0.09839419 -0.11556271 0.08254336
-0.05300678 0.056699652 0.02355047 -0.100118585 0.092955366 -0.023557436 0.07595847 0.084209345
0.071008064 -0.09295227 -0.01089177 0.08187311 0.105172515 -0.06678666 -0.102339216 -0.054839432
-0.060981 0.06155554 -0.09335164 0.11943631 -0.0863033 0.083599985 0.018145496 -0.10379002
-0.10753212 -0.014186611 0.025802054 -0.0025338205 0.05189737 -0.11949572 -0.005121546 -0.032725386
-0.12340854 0.012976276 0.009697475 0.1176486 0.1119562 0.03660388 -0.09329354 -0.07261359
0.10720613 0.01334068 -0.04340912 0.027852045 -0.062790036 -0.06536491 0.055494513 -0.055743173
0.09352797 -0.0037056676 -0.09496135 -0.01113083 0.11363927 -0.09119433 -0.11584906 0.02263893
0.08500997 0.011300665 0.06178154 0.034472384 0.062425233 0.058371436 -0.11181569 0.04630706
0.093634896 -0.0140653895 -0.043457527 -0.078709915 -0.095780164 -0.036653187 -0.058056142 -0.020211402
-0.108232215 -0.03759042 0.10659241 0.08378297 0.022574153 -0.06446244 -0.017479287 -0.09305168
0.037897997 0.07760233 -0.08029968 -0.08689195 0.03282525 0.07513168 0.084427595 -0.046852782
0.011707685 0.06863956 -0.03873749 0.046913374 0.059715934 0.030999849 0.013993074 0.045219194
0.012961612 -0.10282177 0.06767937 0.06397068 -0.109649196 0.03952166 -0.015137346 0.05913696
0.034226727 -0.022957986 0.11922801 0.106168866 0.10293369 0.03209713 -0.081785835 0.103659675
-0.07034634 -0.044040874 -0.08582183 -0.041756924 0.013563827 0.08263904 -0.05622664 0.04398389
-0.11293072 0.120772034 -0.12204748 0.071433574 -0.029698856 -0.09424096 -0.07822112 -0.121449426
0.020973692 -0.11979805 0.089154266 0.05120272 0.055658232 -0.025077408 0.059853364 0.011633022
0.02920109 0.118593045 0.0688599 0.115133174 0.023405764 0.10034662 0.07811546 -0.068335
-0.10167147 0.076789595 -0.07570727 -0.0023085976 0.01892835 0.05392005 0.05046263 -0.09677096
0.023800006 0.07404474 0.09144232 -0.11759563 0.03942557 -0.016296947 0.0045509716 -0.0039148056
-0.05269436 -0.069574 -0.057869498 0.10128577 0.08807856 -0.01758852 -0.067941524 0.078344665
-0.11496053 0.03655915 -0.10391008 0.009944507 0.04197225 0.013026408 -0.014863055 0.102092385
-0.09648302 -0.0001557715 -0.06461494 0.016005833 -0.020931263 -0.036066547 0.07564894 0.10558945
-0.006059606 0.05377236 0.07392296 -0.027906874 -0.08559672 -0.0060290643 -0.06836855 -0.082283825
-0.071775295 -0.092948884 -0.0150125325 -0.073864326 -0.019637015 -0.06719128 0.06519693 0.037959125
-0.058588073 -0.08978277 0.11862651 0.07236816 -0.032783106 -0.123973005 -0.12181265 0.11642558

conv1.kqv_lin.lins.order.bias f4 [192]
00000000: 0af7 223d 35d1 433d 5cba e33d 3348 f23b
00000010: f0f7 d6bd 1c09 8f3d 462b 95bd 860a a93d
00000020: e7ed c6bd 2f25 293c 0a20 c03d 020c d63d
00000030: 8a60 c1bd ed24 9e3d 7bc3 793d 2675 8ebd
00000040: 1b5b 9d3d 42d4 793a 6950 3c3c 9bf2 093d
00000050: 3566 aabd d058 ad3d c518 96bd ae6e 92bd
00000060: dc6f 70bd 1cfd 1439 cb6b 103d e8f4 ab3d
00000070: ba52 953d b0cc 50bc 3cd2 f639 bc68 5b3d
00000080: 706e c9bd 2b9b dbbd 1cce 933d 5b5f 05bd
00000090: 838d a93c 1724 0e3c f7f1 55bc f128 a9bd
000000a0: 628c acbc 1e25 ac3d 7cfc 5ebd adfa 32bd
000000b0: beaf 9bb9 347b d5bd 7aaa c4bd 740b 9c3d
000000c0: 10b6 5bbd 5a72 203c 3784 053d aee7 423b
000000d0: 6348 debd 6a01 e4bc 3861 b53d 27af 6dbd
000000e0: 6658 733d 2431 3abd 6b18 53bd b888 e7bc
000000f0: f7c9 3fbd dcbc 86bd 1da9 3fba 417b f3bc
00000100: dee8 223d 749b 3bbd 34c5 eb3d 07fb 78bc
00000110: 430f ec3d 1b4f 523d da97 873d a0ed 963d
00000120: 9893 a8bd 88a3 8fbc 6c38 433d e122 b1bd
00000130: 8dc7 cdbd 8cca ed3d 16c8 9b3c 863b 8c3c
00000140: 86ba c7bd ec60 eb3c c0fc 603d f01b 85bc
00000150: 02ff d03d 7bcb 1b3d e110 973d 4864 d93d
00000160: 4fc8 c43c 6edf 25bd fdff 923d e7ae 69ba
00000170: c831 e83d e1e7 01bd fe2a f13c 3fae 21bd
00000180: 545f c4bd d58c c63b d746 6e3d 483e ee3d
00000190: f479 84bd d9d8 8dbd 816c fcbd b398 fd3b
000001a0: 244a 02b8 3cd6 ca3d 7154 38bd e429 c9bd
000001b0: a9e3 bb3c 0fe1 a13d cdf3 1bbd d9c8 2ebd
000001c0: 0a14 d73d bdea 223d 2bfa 023b 4641 8c3c
000001d0: 8b39 21bc 23ed 4dbd e349 0b3d 254c eb3d
000001e0: f393 01bc c32a b33d 6f79 cfbb 8bec ffbb
000001f0: cf7d 883d 1d6d e6bd 161b ea39 2956 cd3c
00000200: e3f5 953c ef1d f9bc 2174 ecbd 28e1 8ebd
00000210: 67da b43b 689b bfbc d6c7 0abc faed ea3d
00000220: 6aff c73d 3637 e4bd 7690 b6bd efa9 c93c
00000230: edaa ab3d f113 d8bc 928d 9c3b 03e0 13bd
00000240: 23c6 293d 6ce3 b4bd 1aca 89bd 60ae a3bd
00000250: 6366 123c 1f79 013c c262 ff3d f0ac 393c
00000260: d741 e4bd 88cd 4a3c fef2 7d3c 7ddd c3bd
00000270: 7d3e 313d ca60 f6bd f19d f6bc ecb2 a1bd
00000280: 482c cbbd 766a 953d 1880 8abc d98e 0ebd
00000290: c64a b13d 8060 1e3d 9d2e 1bbc c2e9 d0bd
000002a0: a66d 7bbc 47c6 f7bd 1876 a3bd d904 283d
000002b0: d0b8 53bd f77d f83d 59f7 cb39 ff20 e13d
000002c0: d87d e33d 3c58 753d e713 2a3c 5c3c c53d
000002d0: 3b52 603b 2ccb 8bbc ebb4 50bd b2fe 0abd
000002e0: 2dd7 f2bd 03cb 933d 82ce d73c 0107 893c
000002f0: 00d7 2dbc 7818 ce3d 10a2 98bd 96af 163d
0.039786376 0.047806937 0.111195296 0.0073938607 -0.10496509 0.06984159 -0.072836444 0.0825396
-0.09713345 0.010323807 0.09381111 0.10451509 -0.094422415 0.07721887 0.06097744 -0.06955938
0.076833926 0.0009530225 0.011493781 0.033678632 -0.08320276 0.08464205 -0.07328943 -0.07150017
-0.058700427 0.0001420867 0.03525905 0.083963215 0.072911695 -0.012744114 0.00047077413 0.05356668
-0.098355174 -0.10722955 0.072170466 -0.03256164 0.02069736 0.008675597 -0.013058177 -0.08259762
-0.021063033 0.08405517 -0.054440007 -0.043696094 -0.00029694842 -0.1042389 -0.09602828 0.07619372
-0.053640425 0.009792889 0.032596793 0.0029740143 -0.108536504 -0.027832706 0.08856434 -0.058028366
0.059410475 -0.04545702 -0.05153696 -0.028263435 -0.046823468 -0.06578991 -0.00073112716 -0.029721858
0.03977286 -0.04580255 0.11512223 -0.015196568 0.115263484 0.051344972 0.0662076 0.07369542
-0.08231276 -0.017534032 0.04766123 -0.08649231 -0.10047827 0.116108984 0.019016307 0.017118227
-0.097523734 0.02873274 0.05492854 -0.016248673 0.10204889 0.03803585 0.07376266 0.1061483
0.024021296 -0.040496282 0.07177732 -0.0008914307 0.1133762 -0.031715278 0.029439446 -0.039472815
-0.09588495 0.006059269 0.058173027 0.11632973 -0.06468573 -0.06926126 -0.12325383 0.0077391504
-3.1063464e-05 0.09904143 -0.045002405 -0.09822443 0.022935705 0.07904255 -0.038074303 -0.042672012
0.10501869 0.039774645 0.0019985538 0.017120969 -0.0098403795 -0.05027498 0.03400601 0.11489133
-0.007908809 0.087483905 -0.0063316147 -0.0078101805 0.06664621 -0.112512805 0.0004465214 0.025065498
0.018305724 -0.030409781 -0.11545587 -0.06976539 0.0055191997 -0.023389533 -0.008470496 0.11471172
0.09765513 -0.11143343 -0.089142725 0.024617163 0.08382211 -0.026376696 0.0047776187 -0.036102306
0.041448724 -0.0883244 -0.06728001 -0.07992244 0.008935544 0.007902413 0.124700084 0.011332735
-0.111453705 0.012378104 0.015499828 -0.0956373 0.043272484 -0.1203018 -0.03010461 -0.07895455
-0.09920555 0.072956964 -0.016906783 -0.0348042 0.0865684 0.03866625 -0.009471563 -0.10200836
-0.015345966 -0.12098365 -0.07981509 0.041020248 -0.051689923 0.12133401 0.00038903466 0.10992622
0.11107987 0.0598986 0.010380722 0.09630653 0.00342287 -0.017064653 -0.050953787 -0.033934303
-0.11857448 0.07216456 0.026343588 0.016726973 -0.010610342 0.10063261 -0.07452786 0.036788546

conv1.kqv_lin.lins.payment.weight f4 [192, 64]
00000000: 6aab a8bb 3e86 bfbd 402d 363c 644b 95bd
00000010: 533e a83d 4078 193d dd22 ffbb bbc2 a83d
00000020: 685e ecbc 7884 aa3c 3d1e b7bd d9b2 9a3b
00000030: 0071 56bd 4345 df3d b89e 343d 9dfe b6bd
00000040: 3a39 9b3d c2d7 dcbd 46b4 c7bd d3a3 0b3b
00000050: dd89 98bc 09c9 abbd 3930 75bd 7403 e9bd
00000060: 6a1c 1abd 15e1 28bd e296 4ebd 336b 0d3b
00000070: d62c 73bd 04ea 39bd c6ec 2d3d 88c0 48bd
00000080: 36c7 77bd f502 dc3d fb76 bc3d 1cad 0abd
00000090: 622a 233b c999 ccbd 5b0f a43d 9178 063c
000000a0: 4a1c cc3d 05f6 a9bd 5f51 af3c b222 bc3c
000000b0: 65ff d33d f2b1 f23c 9f58 9fbd b33d 8abc
000000c0: fef8 a6bc 3bea 243d efc0 c3bb ee0e 993d
000000d0: ceb3 85bd dd38 15bc 14d7 843d 78f1 cd3c
000000e0: 98bc e4bb 6169 cd3d 9bcb d2bd 38a7 1ebd
000000f0: d1f0 c4bd 6424 d73c 08e7 e23d 7be5 aebd
00000100: f9e8 873b d06b da38 f346 e53d fd29 60bc
00000110: ace4 7a3d 3a35 8dbc 03f0 d83d e5b7 c63d
00000120: db9e 92bd c54f 1bbd e6ea 19bc 8b0b 04bd
00000130: 3982 92bd 1432 bc3c 800c f8ba 0958 b5bc
00000140: bb84 2b3c 9996 4d3b 8409 b13d c446 e6bc
00000150: 357e 0dbd ad85 b53d b367 fbbb a433 613c
00000160: dd5f 803d 6b3e f7bb 76ff 773b f516 ebbd
00000170: cc97 593d 81c2 6c3d 8bc9 cabd 78d2 ed3c
00000180: e580 c8ba 2ccb 6f3b f72f 613c 1405 95bd
00000190: c7a5 843b 6154 22bc 20ec 36bd 8341 99bd
000001a0: 5c88 f4bb 5257 0fbd ab0b b8bd 3f15 b9bd
000001b0: 035e aabc 5c2b 223d bee2 bdbd 36bc 803d
000001c0: 17ee 6fbd 81a2 593d 7ff2 363d f827 0e3d
000001d0: 1770 acbd 57ea 903c ceb8 2c3d 8dac 0e3d
000001e0: 59ae 12bd 4912 82bd e2c0 82bd 0545 ed3d
000001f0: 5208 30bd 804e 2dbd 3651 a03c 4f67 953d
00000200: 9310 bbbd 603f 2a39 edb0 d23d 52b5 b43d
00000210: 8496 b63d 52a3 953d bad7 bebd 0306 393d
00000220: edb4 393d 06f0 4abd 1719 9abd b44e 893d
00000230: 7d96 323d 8dac 8abd 5a7c c63d 157d 37bc
00000240: 4390 203c 6b6f 6abd 8027 ec3d 8ce9 babc
00000250: 8936 853d 261b e4bc 54d0 6dbd 6794 6bbd
00000260: 6d25 bdbb 712f 973d 0f6b b9bd 4fdd 283d
00000270: 36e4 9e3d 032b dc3d 5c4f b03d 01f6 2abd
00000280: 359c b63d 78e4 95bd f13f b93d 08b2 1a39
00000290: 0dde ccbd 241e 303d 4d21 8a3d 2c45 b43d
000002a0: d0d4 863d 79bd 843d 8457 d43d d1b8 a53d
000002b0: 37b5 513d 5523 75bd 7668 c4bd 3fb5 c93d
000002c0: 51dc 4dbd 6ae6 af3d 5822 c7bd fdd0 84bd
000002d0: aa34 6cbd 4372 573d 1ad0 8ebc 4cc9 753d
000002e0: 37a3 babd 84d4 383d c39a 4c3d d6c4 83bd
000002f0: c898 fcbb aae1 cc3d 76a7 173c f254 d63d
00000300: cd95 64bc 5e15 74b9 7997 e03d 2d65 87bb
00000310: ef43 d9bd b08f a1bc 3608 3ebc 2be6 ccbd
00000320: f286 4b3d 24e5 38ba 5592 d33d aee4 f83c
00000330: 908d 2b3d b111 1abc 16e8 623d 3c7f cbbd
00000340: df40 813c f7cb a23d 0306 dabd f32b 1dbd
00000350: 2437 97bd b317 a0bc a2de ec3b 9b5b 033d
00000360: 4ba8 053c 71ac 34bc e008 26bd c95d 2cbd
00000370: 1139 4c3d dc83 c2bd 4a4d 75bb d69b eebd
00000380: cb55 fc3b cd88 d0bd fe6c 8fba 444f a63d
00000390: eb53 c2bd 958f a7bd 8449 9a3d 8c9d 7d3d
000003a0: 065c 083d 726a 753c ef94 063d 7ac6 09bd
000003b0: e5cd bbbc 051b da3d f4d2 b0bd 98ac a3bd
000003c0: d6c7 bc3d 44fc a5bd a6af c0b8 c324 32bd
000003d0: cb39 0c3c c394 193d d0e0 a33d 3abf f03d
000003e0: e957 78bd 1b9f ac3d 8544 fabb 2075 a5bd
000003f0: d6df cfbc 4bcf 75bd df2c ac3d c881 78bc
-0.0051473873 -0.093517765 0.011119187 -0.0728977 0.082150124 0.037468195 -0.0077861384 0.08240267
-0.02885361 0.02081512 -0.08941314 0.0047210273 -0.05235386 0.109018825 0.04409668 -0.089352824
0.075792745 -0.1078334 -0.09751181 0.0021307364 -0.018620426 -0.08387954 -0.05986044 -0.11377612
-0.037624754 -0.04123028 -0.05043686 0.0021578788 -0.05936893 -0.04538919 0.042462133 -0.049011737
-0.060492717 0.107427515 0.09202381 -0.033856496 0.0024897088 -0.0999027 0.08010741 0.008207456
0.09966333 -0.082988776 0.021401105 0.022965763 0.10351447 0.029625867 -0.07780575 -0.016875124
-0.0203824 0.040262442 -0.005973927 0.07473551 -0.06528436 -0.009107796 0.064863354 0.025139555
-0.00698049 0.10029865 -0.10292741 -0.03873369 -0.096162446 0.02626247 0.11079222 -0.08539864
0.0041476456 0.00010415132 0.11195173 -0.013681886 0.061253235 -0.017237294 0.105926536 0.09703044
-0.071592055 -0.03791787 -0.009394383 -0.03223757 -0.07153744 0.022973098 -0.0018924624 -0.022136705
0.010468657 0.003137028 0.08644393 -0.028109916 -0.03454419 0.08863387 -0.007672274 0.013745222
0.062682845 -0.0075452826 0.0037841476 -0.11478988 0.05312328 0.05780268 -0.099017225 0.029031023
-0.0015297203 0.0036589606 0.013744346 -0.07276359 0.0040480825 -0.009907813 -0.04465878 -0.074831985
-0.0074625444 -0.034995385 -0.089866005 -0.090372555 -0.020796781 0.039592132 -0.09271763 0.062858984
-0.05857667 0.05313349 0.044664856 0.034706086 -0.08419817 0.017689867 0.04216843 0.034832526
-0.035810802 -0.06351144 -0.06384446 0.1158543 -0.042976685 -0.04231119 0.019569974 0.07295095
-0.09134021 0.00016236072 0.10287652 0.088236466 0.08915427 0.073065415 -0.0931849 0.04517175
0.04533856 -0.04954531 -0.07524317 0.067044646 0.043600548 -0.06771193 0.09691687 -0.0111992555
0.00980002 -0.057235163 0.115309715 -0.022816442 0.065045424 -0.027844977 -0.058060005 -0.057514574
-0.0057722838 0.073820956 -0.09053623 0.04122668 0.077583715 0.10750391 0.086088866 -0.041738514
0.08916513 -0.073189676 0.09045399 0.00014752906 -0.1000329 0.042997494 0.06744633 0.08802256
0.065835595 0.064814515 0.10368255 0.080918916 0.05119821 -0.05984815 -0.09590237 0.09849023
-0.05025894 0.0858887 -0.097233474 -0.06485174 -0.057667412 0.052599203 -0.017433215 0.060006425
-0.09113162 0.045124546 0.04995228 -0.06434028 -0.0077086426 0.100039795 0.009256234 0.10465421
-0.013951731 -0.00023277613 0.10966391 -0.004131934 -0.106086604 -0.019721836 -0.011598637 -0.100048386
0.04968924 -0.00070531876 0.10330645 0.03038248 0.04188305 -0.009403632 0.055397116 -0.099363774
0.015778003 0.079490595 -0.10645678 -0.03837199 -0.07383564 -0.01954255 0.0072286883 0.032069784
0.0081578 -0.011027441 -0.040535808 -0.042081628 0.04985911 -0.094978064 -0.00374301 -0.11650817
0.007700657 -0.10182343 -0.0010942516 0.081205875 -0.09488662 -0.08181683 0.07533553 0.061917827
0.033290885 0.014978992 0.032856878 -0.033636548 -0.022925327 0.10649685 -0.08633986 -0.07991904
0.09217803 -0.081047565 -9.1879905e-05 -0.04349209 0.008558701 0.037495386 0.08001864 0.117552236
-0.060630713 0.084287845 -0.0076375627 -0.080789804 -0.025375288 -0.060012143 0.08406996 -0.015167661
